7767517
186 202
Input                    images                   0 1 images
Convolution              Conv_0                   1 1 images 152 0=32 1=3 3=2 4=1 5=1 6=864
HardSwish                Mul_8                    1 1 152 160 0=1.666667e-01
ConvolutionDepthWise     Conv_9                   1 1 160 161 0=32 1=3 3=2 4=1 5=1 6=288 7=32
HardSwish                Mul_17                   1 1 161 169 0=1.666667e-01
Convolution              Conv_18                  1 1 169 170 0=64 1=1 5=1 6=2048
HardSwish                Mul_26                   1 1 170 178 0=1.666667e-01
ConvolutionDepthWise     Conv_27                  1 1 178 179 0=64 1=3 4=1 5=1 6=576 7=64
HardSwish                Mul_35                   1 1 179 187 0=1.666667e-01
Convolution              Conv_36                  1 1 187 188 0=64 1=1 5=1 6=4096
HardSwish                Mul_44                   1 1 188 196 0=1.666667e-01
ConvolutionDepthWise     Conv_45                  1 1 196 197 0=64 1=3 3=2 4=1 5=1 6=576 7=64
HardSwish                Mul_53                   1 1 197 205 0=1.666667e-01
Convolution              Conv_54                  1 1 205 206 0=128 1=1 5=1 6=8192
HardSwish                Mul_62                   1 1 206 214 0=1.666667e-01
ConvolutionDepthWise     Conv_63                  1 1 214 215 0=128 1=3 4=1 5=1 6=1152 7=128
HardSwish                Mul_71                   1 1 215 223 0=1.666667e-01
Convolution              Conv_72                  1 1 223 224 0=128 1=1 5=1 6=16384
HardSwish                Mul_80                   1 1 224 232 0=1.666667e-01
ConvolutionDepthWise     Conv_81                  1 1 232 233 0=128 1=3 4=1 5=1 6=1152 7=128
HardSwish                Mul_89                   1 1 233 241 0=1.666667e-01
Convolution              Conv_90                  1 1 241 242 0=128 1=1 5=1 6=16384
HardSwish                Mul_98                   1 1 242 250 0=1.666667e-01
ConvolutionDepthWise     Conv_99                  1 1 250 251 0=128 1=3 4=1 5=1 6=1152 7=128
HardSwish                Mul_107                  1 1 251 259 0=1.666667e-01
Convolution              Conv_108                 1 1 259 260 0=128 1=1 5=1 6=16384
HardSwish                Mul_116                  1 1 260 268 0=1.666667e-01
Split                    splitncnn_0              1 2 268 268_splitncnn_0 268_splitncnn_1
ConvolutionDepthWise     Conv_117                 1 1 268_splitncnn_1 269 0=128 1=3 3=2 4=1 5=1 6=1152 7=128
HardSwish                Mul_125                  1 1 269 277 0=1.666667e-01
Convolution              Conv_126                 1 1 277 278 0=256 1=1 5=1 6=32768
HardSwish                Mul_134                  1 1 278 286 0=1.666667e-01
ConvolutionDepthWise     Conv_135                 1 1 286 287 0=256 1=5 4=2 5=1 6=6400 7=256
HardSwish                Mul_143                  1 1 287 295 0=1.666667e-01
Convolution              Conv_144                 1 1 295 296 0=256 1=1 5=1 6=65536
HardSwish                Mul_152                  1 1 296 304 0=1.666667e-01
ConvolutionDepthWise     Conv_153                 1 1 304 305 0=256 1=5 4=2 5=1 6=6400 7=256
HardSwish                Mul_161                  1 1 305 313 0=1.666667e-01
Convolution              Conv_162                 1 1 313 314 0=256 1=1 5=1 6=65536
HardSwish                Mul_170                  1 1 314 322 0=1.666667e-01
ConvolutionDepthWise     Conv_171                 1 1 322 323 0=256 1=5 4=2 5=1 6=6400 7=256
HardSwish                Mul_179                  1 1 323 331 0=1.666667e-01
Convolution              Conv_180                 1 1 331 332 0=256 1=1 5=1 6=65536
HardSwish                Mul_188                  1 1 332 340 0=1.666667e-01
ConvolutionDepthWise     Conv_189                 1 1 340 341 0=256 1=5 4=2 5=1 6=6400 7=256
HardSwish                Mul_197                  1 1 341 349 0=1.666667e-01
Convolution              Conv_198                 1 1 349 350 0=256 1=1 5=1 6=65536
HardSwish                Mul_206                  1 1 350 358 0=1.666667e-01
ConvolutionDepthWise     Conv_207                 1 1 358 359 0=256 1=5 4=2 5=1 6=6400 7=256
HardSwish                Mul_215                  1 1 359 367 0=1.666667e-01
Convolution              Conv_216                 1 1 367 368 0=256 1=1 5=1 6=65536
HardSwish                Mul_224                  1 1 368 376 0=1.666667e-01
Split                    splitncnn_1              1 2 376 376_splitncnn_0 376_splitncnn_1
ConvolutionDepthWise     Conv_225                 1 1 376_splitncnn_1 377 0=256 1=5 3=2 4=2 5=1 6=6400 7=256
HardSwish                Mul_233                  1 1 377 385 0=1.666667e-01
Split                    splitncnn_2              1 2 385 385_splitncnn_0 385_splitncnn_1
Pooling                  GlobalAveragePool_234    1 1 385_splitncnn_1 386 0=1 4=1
InnerProduct             Conv_235                 1 1 386 388 0=64 1=1 2=16384 9=1
InnerProduct             Conv_237                 1 1 388 389 0=256 1=1 2=16384
Swish                    Mul_239                  1 1 389 391
BinaryOp                 Mul_240                  2 1 385_splitncnn_0 391 392 0=2
Convolution              Conv_241                 1 1 392 393 0=512 1=1 5=1 6=131072
HardSwish                Mul_249                  1 1 393 401 0=1.666667e-01
ConvolutionDepthWise     Conv_250                 1 1 401 402 0=512 1=5 4=2 5=1 6=12800 7=512
HardSwish                Mul_258                  1 1 402 410 0=1.666667e-01
Split                    splitncnn_3              1 2 410 410_splitncnn_0 410_splitncnn_1
Pooling                  GlobalAveragePool_259    1 1 410_splitncnn_1 411 0=1 4=1
InnerProduct             Conv_260                 1 1 411 413 0=128 1=1 2=65536 9=1
InnerProduct             Conv_262                 1 1 413 414 0=512 1=1 2=65536
Swish                    Mul_264                  1 1 414 416
BinaryOp                 Mul_265                  2 1 410_splitncnn_0 416 417 0=2
Convolution              Conv_266                 1 1 417 418 0=512 1=1 5=1 6=262144
HardSwish                Mul_274                  1 1 418 426 0=1.666667e-01
ConvolutionDepthWise     Conv_275                 1 1 426 427 0=512 1=5 4=2 5=1 6=12800 7=512
HardSwish                Mul_283                  1 1 427 435 0=1.666667e-01
Split                    splitncnn_4              1 2 435 435_splitncnn_0 435_splitncnn_1
Pooling                  GlobalAveragePool_284    1 1 435_splitncnn_1 436 0=1 4=1
InnerProduct             Conv_285                 1 1 436 438 0=128 1=1 2=65536 9=1
InnerProduct             Conv_287                 1 1 438 439 0=512 1=1 2=65536
Swish                    Mul_289                  1 1 439 441
BinaryOp                 Mul_290                  2 1 435_splitncnn_0 441 442 0=2
Convolution              Conv_291                 1 1 442 443 0=512 1=1 5=1 6=262144
HardSwish                Mul_299                  1 1 443 451 0=1.666667e-01
ConvolutionDepthWise     Conv_300                 1 1 451 452 0=512 1=5 4=2 5=1 6=12800 7=512
HardSwish                Mul_308                  1 1 452 460 0=1.666667e-01
Split                    splitncnn_5              1 2 460 460_splitncnn_0 460_splitncnn_1
Pooling                  GlobalAveragePool_309    1 1 460_splitncnn_1 461 0=1 4=1
InnerProduct             Conv_310                 1 1 461 463 0=128 1=1 2=65536 9=1
InnerProduct             Conv_312                 1 1 463 464 0=512 1=1 2=65536
Swish                    Mul_314                  1 1 464 466
BinaryOp                 Mul_315                  2 1 460_splitncnn_0 466 467 0=2
Convolution              Conv_316                 1 1 467 468 0=512 1=1 5=1 6=262144
HardSwish                Mul_324                  1 1 468 476 0=1.666667e-01
Convolution              Conv_325                 1 1 476 477 0=512 1=1 6=262144
HardSwish                Mul_333                  1 1 477 485 0=1.666667e-01
Convolution              Conv_334                 1 1 485 486 0=256 1=1 5=1 6=131072
Swish                    Mul_336                  1 1 486 488
Split                    splitncnn_6              1 2 488 488_splitncnn_0 488_splitncnn_1
Interp                   Resize_338               1 1 488_splitncnn_1 493 0=1 1=2.000000e+00 2=2.000000e+00
Concat                   Concat_339               2 1 493 376_splitncnn_0 494
Split                    splitncnn_7              1 2 494 494_splitncnn_0 494_splitncnn_1
Convolution              Conv_340                 1 1 494_splitncnn_1 495 0=128 1=1 5=1 6=65536
Swish                    Mul_342                  1 1 495 497
Convolution              Conv_343                 1 1 497 498 0=128 1=1 5=1 6=16384
Swish                    Mul_345                  1 1 498 500
Convolution              Conv_346                 1 1 500 501 0=128 1=3 4=1 5=1 6=147456
Swish                    Mul_348                  1 1 501 503
Convolution              Conv_349                 1 1 494_splitncnn_0 504 0=128 1=1 5=1 6=65536
Swish                    Mul_351                  1 1 504 506
Concat                   Concat_352               2 1 503 506 507
Convolution              Conv_353                 1 1 507 508 0=256 1=1 5=1 6=65536
Swish                    Mul_355                  1 1 508 510
Convolution              Conv_356                 1 1 510 511 0=128 1=1 5=1 6=32768
Swish                    Mul_358                  1 1 511 513
Split                    splitncnn_8              1 2 513 513_splitncnn_0 513_splitncnn_1
Interp                   Resize_360               1 1 513_splitncnn_1 518 0=1 1=2.000000e+00 2=2.000000e+00
Concat                   Concat_361               2 1 518 268_splitncnn_0 519
Split                    splitncnn_9              1 2 519 519_splitncnn_0 519_splitncnn_1
Convolution              Conv_362                 1 1 519_splitncnn_1 520 0=64 1=1 5=1 6=16384
Swish                    Mul_364                  1 1 520 522
Convolution              Conv_365                 1 1 522 523 0=64 1=1 5=1 6=4096
Swish                    Mul_367                  1 1 523 525
Convolution              Conv_368                 1 1 525 526 0=64 1=3 4=1 5=1 6=36864
Swish                    Mul_370                  1 1 526 528
Convolution              Conv_371                 1 1 519_splitncnn_0 529 0=64 1=1 5=1 6=16384
Swish                    Mul_373                  1 1 529 531
Concat                   Concat_374               2 1 528 531 532
Convolution              Conv_375                 1 1 532 533 0=128 1=1 5=1 6=16384
Swish                    Mul_377                  1 1 533 535
Split                    splitncnn_10             1 2 535 535_splitncnn_0 535_splitncnn_1
ConvolutionDepthWise     Conv_378                 1 1 535_splitncnn_1 536 0=128 1=5 3=2 4=2 5=1 6=3200 7=128
HardSwish                Mul_386                  1 1 536 544 0=1.666667e-01
Split                    splitncnn_11             1 2 544 544_splitncnn_0 544_splitncnn_1
Pooling                  GlobalAveragePool_387    1 1 544_splitncnn_1 545 0=1 4=1
InnerProduct             Conv_388                 1 1 545 547 0=32 1=1 2=4096 9=1
InnerProduct             Conv_390                 1 1 547 548 0=128 1=1 2=4096
Swish                    Mul_392                  1 1 548 550
BinaryOp                 Mul_393                  2 1 544_splitncnn_0 550 551 0=2
Convolution              Conv_394                 1 1 551 552 0=128 1=1 5=1 6=16384
HardSwish                Mul_402                  1 1 552 560 0=1.666667e-01
Concat                   Concat_403               2 1 560 513_splitncnn_0 561
Split                    splitncnn_12             1 2 561 561_splitncnn_0 561_splitncnn_1
Convolution              Conv_404                 1 1 561_splitncnn_1 562 0=128 1=1 5=1 6=32768
Swish                    Mul_406                  1 1 562 564
Convolution              Conv_407                 1 1 564 565 0=128 1=1 5=1 6=16384
Swish                    Mul_409                  1 1 565 567
Convolution              Conv_410                 1 1 567 568 0=128 1=3 4=1 5=1 6=147456
Swish                    Mul_412                  1 1 568 570
Convolution              Conv_413                 1 1 561_splitncnn_0 571 0=128 1=1 5=1 6=32768
Swish                    Mul_415                  1 1 571 573
Concat                   Concat_416               2 1 570 573 574
Convolution              Conv_417                 1 1 574 575 0=256 1=1 5=1 6=65536
Swish                    Mul_419                  1 1 575 577
Split                    splitncnn_13             1 2 577 577_splitncnn_0 577_splitncnn_1
ConvolutionDepthWise     Conv_420                 1 1 577_splitncnn_1 578 0=256 1=5 3=2 4=2 5=1 6=6400 7=256
HardSwish                Mul_428                  1 1 578 586 0=1.666667e-01
Split                    splitncnn_14             1 2 586 586_splitncnn_0 586_splitncnn_1
Pooling                  GlobalAveragePool_429    1 1 586_splitncnn_1 587 0=1 4=1
InnerProduct             Conv_430                 1 1 587 589 0=64 1=1 2=16384 9=1
InnerProduct             Conv_432                 1 1 589 590 0=256 1=1 2=16384
Swish                    Mul_434                  1 1 590 592
BinaryOp                 Mul_435                  2 1 586_splitncnn_0 592 593 0=2
Convolution              Conv_436                 1 1 593 594 0=256 1=1 5=1 6=65536
HardSwish                Mul_444                  1 1 594 602 0=1.666667e-01
Concat                   Concat_445               2 1 602 488_splitncnn_0 603
Split                    splitncnn_15             1 2 603 603_splitncnn_0 603_splitncnn_1
Convolution              Conv_446                 1 1 603_splitncnn_1 604 0=256 1=1 5=1 6=131072
Swish                    Mul_448                  1 1 604 606
Convolution              Conv_449                 1 1 606 607 0=256 1=1 5=1 6=65536
Swish                    Mul_451                  1 1 607 609
Convolution              Conv_452                 1 1 609 610 0=256 1=3 4=1 5=1 6=589824
Swish                    Mul_454                  1 1 610 612
Convolution              Conv_455                 1 1 603_splitncnn_0 613 0=256 1=1 5=1 6=131072
Swish                    Mul_457                  1 1 613 615
Concat                   Concat_458               2 1 612 615 616
Convolution              Conv_459                 1 1 616 617 0=512 1=1 5=1 6=262144
Swish                    Mul_461                  1 1 617 619
Convolution              Conv_462                 1 1 535_splitncnn_0 620 0=255 1=1 5=1 6=32640
Reshape                  Reshape_476              1 1 620 638 0=-1 1=85 2=3
Permute                  Transpose_477            1 1 638 output 0=1
Convolution              Conv_478                 1 1 577_splitncnn_0 640 0=255 1=1 5=1 6=65280
Reshape                  Reshape_492              1 1 640 658 0=-1 1=85 2=3
Permute                  Transpose_493            1 1 658 1111 0=1
Convolution              Conv_494                 1 1 619 660 0=255 1=1 5=1 6=130560
Reshape                  Reshape_508              1 1 660 678 0=-1 1=85 2=3
Permute                  Transpose_509            1 1 678 2222 0=1
