7767517
190 214
Input                    images                   0 1 images
Convolution              Conv_0                   1 1 images 181 0=32 1=3 3=2 4=1 5=1 6=864 9=1
Pooling                  MaxPool_2                1 1 181 182 1=3 2=2 3=1 5=1
Split                    splitncnn_0              1 2 182 182_splitncnn_0 182_splitncnn_1
ConvolutionDepthWise     Conv_3                   1 1 182_splitncnn_1 183 0=32 1=3 3=2 4=1 5=1 6=288 7=32
Convolution              Conv_4                   1 1 183 185 0=60 1=1 5=1 6=1920 9=1
Convolution              Conv_6                   1 1 182_splitncnn_0 187 0=60 1=1 5=1 6=1920 9=1
ConvolutionDepthWise     Conv_8                   1 1 187 188 0=60 1=3 3=2 4=1 5=1 6=540 7=60
Convolution              Conv_9                   1 1 188 190 0=60 1=1 5=1 6=3600 9=1
Concat                   Concat_11                2 1 185 190 191
ShuffleChannel           Reshape_16               1 1 191 196 0=2
Split                    splitncnn_1              1 2 196 196_splitncnn_0 196_splitncnn_1
Crop                     Slice_27                 1 1 196_splitncnn_1 207 -23309=1,0 -23310=1,60 -23311=1,0
Crop                     Slice_30                 1 1 196_splitncnn_0 210 -23309=1,60 -23310=1,120 -23311=1,0
Convolution              Conv_31                  1 1 210 212 0=60 1=1 5=1 6=3600 9=1
ConvolutionDepthWise     Conv_33                  1 1 212 213 0=60 1=3 4=1 5=1 6=540 7=60
Convolution              Conv_34                  1 1 213 215 0=60 1=1 5=1 6=3600 9=1
Concat                   Concat_36                2 1 207 215 216
ShuffleChannel           Reshape_41               1 1 216 221 0=2
Split                    splitncnn_2              1 2 221 221_splitncnn_0 221_splitncnn_1
Crop                     Slice_52                 1 1 221_splitncnn_1 232 -23309=1,0 -23310=1,60 -23311=1,0
Crop                     Slice_55                 1 1 221_splitncnn_0 235 -23309=1,60 -23310=1,120 -23311=1,0
Convolution              Conv_56                  1 1 235 237 0=60 1=1 5=1 6=3600 9=1
ConvolutionDepthWise     Conv_58                  1 1 237 238 0=60 1=3 4=1 5=1 6=540 7=60
Convolution              Conv_59                  1 1 238 240 0=60 1=1 5=1 6=3600 9=1
Concat                   Concat_61                2 1 232 240 241
ShuffleChannel           Reshape_66               1 1 241 246 0=2
Split                    splitncnn_3              1 2 246 246_splitncnn_0 246_splitncnn_1
Crop                     Slice_77                 1 1 246_splitncnn_1 257 -23309=1,0 -23310=1,60 -23311=1,0
Crop                     Slice_80                 1 1 246_splitncnn_0 260 -23309=1,60 -23310=1,120 -23311=1,0
Convolution              Conv_81                  1 1 260 262 0=60 1=1 5=1 6=3600 9=1
ConvolutionDepthWise     Conv_83                  1 1 262 263 0=60 1=3 4=1 5=1 6=540 7=60
Convolution              Conv_84                  1 1 263 265 0=60 1=1 5=1 6=3600 9=1
Concat                   Concat_86                2 1 257 265 266
ShuffleChannel           Reshape_91               1 1 266 271 0=2
Split                    splitncnn_4              1 3 271 271_splitncnn_0 271_splitncnn_1 271_splitncnn_2
ConvolutionDepthWise     Conv_92                  1 1 271_splitncnn_2 272 0=120 1=3 3=2 4=1 5=1 6=1080 7=120
Convolution              Conv_93                  1 1 272 274 0=116 1=1 5=1 6=13920 9=1
Convolution              Conv_95                  1 1 271_splitncnn_1 276 0=116 1=1 5=1 6=13920 9=1
ConvolutionDepthWise     Conv_97                  1 1 276 277 0=116 1=3 3=2 4=1 5=1 6=1044 7=116
Convolution              Conv_98                  1 1 277 279 0=116 1=1 5=1 6=13456 9=1
Concat                   Concat_100               2 1 274 279 280
ShuffleChannel           Reshape_105              1 1 280 285 0=2
Split                    splitncnn_5              1 2 285 285_splitncnn_0 285_splitncnn_1
Crop                     Slice_116                1 1 285_splitncnn_1 296 -23309=1,0 -23310=1,116 -23311=1,0
Crop                     Slice_119                1 1 285_splitncnn_0 299 -23309=1,116 -23310=1,232 -23311=1,0
Convolution              Conv_120                 1 1 299 301 0=116 1=1 5=1 6=13456 9=1
ConvolutionDepthWise     Conv_122                 1 1 301 302 0=116 1=3 4=1 5=1 6=1044 7=116
Convolution              Conv_123                 1 1 302 304 0=116 1=1 5=1 6=13456 9=1
Concat                   Concat_125               2 1 296 304 305
ShuffleChannel           Reshape_130              1 1 305 310 0=2
Split                    splitncnn_6              1 2 310 310_splitncnn_0 310_splitncnn_1
Crop                     Slice_141                1 1 310_splitncnn_1 321 -23309=1,0 -23310=1,116 -23311=1,0
Crop                     Slice_144                1 1 310_splitncnn_0 324 -23309=1,116 -23310=1,232 -23311=1,0
Convolution              Conv_145                 1 1 324 326 0=116 1=1 5=1 6=13456 9=1
ConvolutionDepthWise     Conv_147                 1 1 326 327 0=116 1=3 4=1 5=1 6=1044 7=116
Convolution              Conv_148                 1 1 327 329 0=116 1=1 5=1 6=13456 9=1
Concat                   Concat_150               2 1 321 329 330
ShuffleChannel           Reshape_155              1 1 330 335 0=2
Split                    splitncnn_7              1 2 335 335_splitncnn_0 335_splitncnn_1
Crop                     Slice_166                1 1 335_splitncnn_1 346 -23309=1,0 -23310=1,116 -23311=1,0
Crop                     Slice_169                1 1 335_splitncnn_0 349 -23309=1,116 -23310=1,232 -23311=1,0
Convolution              Conv_170                 1 1 349 351 0=116 1=1 5=1 6=13456 9=1
ConvolutionDepthWise     Conv_172                 1 1 351 352 0=116 1=3 4=1 5=1 6=1044 7=116
Convolution              Conv_173                 1 1 352 354 0=116 1=1 5=1 6=13456 9=1
Concat                   Concat_175               2 1 346 354 355
ShuffleChannel           Reshape_180              1 1 355 360 0=2
Split                    splitncnn_8              1 2 360 360_splitncnn_0 360_splitncnn_1
Crop                     Slice_191                1 1 360_splitncnn_1 371 -23309=1,0 -23310=1,116 -23311=1,0
Crop                     Slice_194                1 1 360_splitncnn_0 374 -23309=1,116 -23310=1,232 -23311=1,0
Convolution              Conv_195                 1 1 374 376 0=116 1=1 5=1 6=13456 9=1
ConvolutionDepthWise     Conv_197                 1 1 376 377 0=116 1=3 4=1 5=1 6=1044 7=116
Convolution              Conv_198                 1 1 377 379 0=116 1=1 5=1 6=13456 9=1
Concat                   Concat_200               2 1 371 379 380
ShuffleChannel           Reshape_205              1 1 380 385 0=2
Split                    splitncnn_9              1 2 385 385_splitncnn_0 385_splitncnn_1
Crop                     Slice_216                1 1 385_splitncnn_1 396 -23309=1,0 -23310=1,116 -23311=1,0
Crop                     Slice_219                1 1 385_splitncnn_0 399 -23309=1,116 -23310=1,232 -23311=1,0
Convolution              Conv_220                 1 1 399 401 0=116 1=1 5=1 6=13456 9=1
ConvolutionDepthWise     Conv_222                 1 1 401 402 0=116 1=3 4=1 5=1 6=1044 7=116
Convolution              Conv_223                 1 1 402 404 0=116 1=1 5=1 6=13456 9=1
Concat                   Concat_225               2 1 396 404 405
ShuffleChannel           Reshape_230              1 1 405 410 0=2
Split                    splitncnn_10             1 2 410 410_splitncnn_0 410_splitncnn_1
Crop                     Slice_241                1 1 410_splitncnn_1 421 -23309=1,0 -23310=1,116 -23311=1,0
Crop                     Slice_244                1 1 410_splitncnn_0 424 -23309=1,116 -23310=1,232 -23311=1,0
Convolution              Conv_245                 1 1 424 426 0=116 1=1 5=1 6=13456 9=1
ConvolutionDepthWise     Conv_247                 1 1 426 427 0=116 1=3 4=1 5=1 6=1044 7=116
Convolution              Conv_248                 1 1 427 429 0=116 1=1 5=1 6=13456 9=1
Concat                   Concat_250               2 1 421 429 430
ShuffleChannel           Reshape_255              1 1 430 435 0=2
Split                    splitncnn_11             1 2 435 435_splitncnn_0 435_splitncnn_1
Crop                     Slice_266                1 1 435_splitncnn_1 446 -23309=1,0 -23310=1,116 -23311=1,0
Crop                     Slice_269                1 1 435_splitncnn_0 449 -23309=1,116 -23310=1,232 -23311=1,0
Convolution              Conv_270                 1 1 449 451 0=116 1=1 5=1 6=13456 9=1
ConvolutionDepthWise     Conv_272                 1 1 451 452 0=116 1=3 4=1 5=1 6=1044 7=116
Convolution              Conv_273                 1 1 452 454 0=116 1=1 5=1 6=13456 9=1
Concat                   Concat_275               2 1 446 454 455
ShuffleChannel           Reshape_280              1 1 455 460 0=2
Split                    splitncnn_12             1 3 460 460_splitncnn_0 460_splitncnn_1 460_splitncnn_2
ConvolutionDepthWise     Conv_281                 1 1 460_splitncnn_2 461 0=232 1=3 3=2 4=1 5=1 6=2088 7=232
Convolution              Conv_282                 1 1 461 463 0=232 1=1 5=1 6=53824 9=1
Convolution              Conv_284                 1 1 460_splitncnn_1 465 0=232 1=1 5=1 6=53824 9=1
ConvolutionDepthWise     Conv_286                 1 1 465 466 0=232 1=3 3=2 4=1 5=1 6=2088 7=232
Convolution              Conv_287                 1 1 466 468 0=232 1=1 5=1 6=53824 9=1
Concat                   Concat_289               2 1 463 468 469
ShuffleChannel           Reshape_294              1 1 469 474 0=2
Split                    splitncnn_13             1 2 474 474_splitncnn_0 474_splitncnn_1
Crop                     Slice_305                1 1 474_splitncnn_1 485 -23309=1,0 -23310=1,232 -23311=1,0
Crop                     Slice_308                1 1 474_splitncnn_0 488 -23309=1,232 -23310=1,464 -23311=1,0
Convolution              Conv_309                 1 1 488 490 0=232 1=1 5=1 6=53824 9=1
ConvolutionDepthWise     Conv_311                 1 1 490 491 0=232 1=3 4=1 5=1 6=2088 7=232
Convolution              Conv_312                 1 1 491 493 0=232 1=1 5=1 6=53824 9=1
Concat                   Concat_314               2 1 485 493 494
ShuffleChannel           Reshape_319              1 1 494 499 0=2
Convolution              Conv_320                 1 1 499 500 0=96 1=1 5=1 6=44544
Swish                    Mul_322                  1 1 500 502
Split                    splitncnn_14             1 2 502 502_splitncnn_0 502_splitncnn_1
Interp                   Resize_324               1 1 502_splitncnn_1 507 0=1 1=2.000000e+00 2=2.000000e+00
Concat                   Concat_325               2 1 507 460_splitncnn_0 508
Split                    splitncnn_15             1 2 508 508_splitncnn_0 508_splitncnn_1
Convolution              Conv_326                 1 1 508_splitncnn_1 509 0=48 1=1 5=1 6=15744
Swish                    Mul_328                  1 1 509 511
Convolution              Conv_329                 1 1 511 512 0=48 1=1 5=1 6=2304
Swish                    Mul_331                  1 1 512 514
Convolution              Conv_332                 1 1 514 515 0=48 1=3 4=1 5=1 6=20736
Swish                    Mul_334                  1 1 515 517
Convolution              Conv_335                 1 1 508_splitncnn_0 518 0=48 1=1 5=1 6=15744
Swish                    Mul_337                  1 1 518 520
Concat                   Concat_338               2 1 517 520 521
Convolution              Conv_339                 1 1 521 522 0=96 1=1 5=1 6=9216
Swish                    Mul_341                  1 1 522 524
Convolution              Conv_342                 1 1 524 525 0=96 1=1 5=1 6=9216
Swish                    Mul_344                  1 1 525 527
Split                    splitncnn_16             1 2 527 527_splitncnn_0 527_splitncnn_1
Interp                   Resize_346               1 1 527_splitncnn_1 532 0=1 1=2.000000e+00 2=2.000000e+00
Concat                   Concat_347               2 1 532 271_splitncnn_0 533
Split                    splitncnn_17             1 2 533 533_splitncnn_0 533_splitncnn_1
Convolution              Conv_348                 1 1 533_splitncnn_1 534 0=48 1=1 5=1 6=10368
Swish                    Mul_350                  1 1 534 536
Convolution              Conv_351                 1 1 536 537 0=48 1=1 5=1 6=2304
Swish                    Mul_353                  1 1 537 539
Convolution              Conv_354                 1 1 539 540 0=48 1=3 4=1 5=1 6=20736
Swish                    Mul_356                  1 1 540 542
Convolution              Conv_357                 1 1 533_splitncnn_0 543 0=48 1=1 5=1 6=10368
Swish                    Mul_359                  1 1 543 545
Concat                   Concat_360               2 1 542 545 546
Convolution              Conv_361                 1 1 546 547 0=96 1=1 5=1 6=9216
Swish                    Mul_363                  1 1 547 549
Split                    splitncnn_18             1 2 549 549_splitncnn_0 549_splitncnn_1
ConvolutionDepthWise     Conv_364                 1 1 549_splitncnn_1 552 0=96 1=5 3=2 4=2 5=1 6=2400 7=96 9=1
Convolution              Conv_366                 1 1 552 555 0=96 1=1 5=1 6=9216 9=1
BinaryOp                 Add_368                  2 1 555 527_splitncnn_0 556
Split                    splitncnn_19             1 2 556 556_splitncnn_0 556_splitncnn_1
Convolution              Conv_369                 1 1 556_splitncnn_1 557 0=48 1=1 5=1 6=4608
Swish                    Mul_371                  1 1 557 559
Convolution              Conv_372                 1 1 559 560 0=48 1=1 5=1 6=2304
Swish                    Mul_374                  1 1 560 562
Convolution              Conv_375                 1 1 562 563 0=48 1=3 4=1 5=1 6=20736
Swish                    Mul_377                  1 1 563 565
Convolution              Conv_378                 1 1 556_splitncnn_0 566 0=48 1=1 5=1 6=4608
Swish                    Mul_380                  1 1 566 568
Concat                   Concat_381               2 1 565 568 569
Convolution              Conv_382                 1 1 569 570 0=96 1=1 5=1 6=9216
Swish                    Mul_384                  1 1 570 572
Split                    splitncnn_20             1 2 572 572_splitncnn_0 572_splitncnn_1
ConvolutionDepthWise     Conv_385                 1 1 572_splitncnn_1 575 0=96 1=5 3=2 4=2 5=1 6=2400 7=96 9=1
Convolution              Conv_387                 1 1 575 578 0=96 1=1 5=1 6=9216 9=1
BinaryOp                 Add_389                  2 1 578 502_splitncnn_0 579
Split                    splitncnn_21             1 2 579 579_splitncnn_0 579_splitncnn_1
Convolution              Conv_390                 1 1 579_splitncnn_1 580 0=48 1=1 5=1 6=4608
Swish                    Mul_392                  1 1 580 582
Convolution              Conv_393                 1 1 582 583 0=48 1=1 5=1 6=2304
Swish                    Mul_395                  1 1 583 585
Convolution              Conv_396                 1 1 585 586 0=48 1=3 4=1 5=1 6=20736
Swish                    Mul_398                  1 1 586 588
Convolution              Conv_399                 1 1 579_splitncnn_0 589 0=48 1=1 5=1 6=4608
Swish                    Mul_401                  1 1 589 591
Concat                   Concat_402               2 1 588 591 592
Convolution              Conv_403                 1 1 592 593 0=96 1=1 5=1 6=9216
Swish                    Mul_405                  1 1 593 595
Convolution              Conv_406                 1 1 549_splitncnn_0 596 0=255 1=1 5=1 6=24480
Reshape                  Reshape_420              1 1 596 614 0=-1 1=85 2=3
Permute                  Transpose_421            1 1 614 output 0=1
Convolution              Conv_422                 1 1 572_splitncnn_0 616 0=255 1=1 5=1 6=24480
Reshape                  Reshape_436              1 1 616 634 0=-1 1=85 2=3
Permute                  Transpose_437            1 1 634 635 0=1
Convolution              Conv_438                 1 1 595 636 0=255 1=1 5=1 6=24480
Reshape                  Reshape_452              1 1 636 654 0=-1 1=85 2=3
Permute                  Transpose_453            1 1 654 655 0=1
