# parameters
nc: 80  # number of classes
depth_multiple: 1.0  # model depth multiple
width_multiple: 1.0  # layer channel multiple

# anchors
anchors:
  - [11,16,  28,27,  33,74,  ]  # P3/8
  - [ 83,61,  107,162,  297,278 ]  # P4/16

# custom backbone
backbone:
  # [from, number, module, args]
  [ [ -1, 1, stem, [ 32 ] ],    # 0-P2/4
    [ -1, 1, MBConvBlock, [ 16, 3, 1 ] ], # 1-P3/8
    [ -1, 3, MBConvBlock, [ 24, 3, 2 ] ], # 2
    [ -1, 1, MBConvBlock, [ 40, 5, 2 ] ], # 3-P4/16
    [ -1, 7, MBConvBlock, [ 80, 3, 2 ] ], # 4
    [ -1, 1, MBConvBlock, [ 112, 5, 1 ] ], # 5-P5/32
    [ -1, 3, MBConvBlock, [ 192, 5, 2 ] ], # 6
    [ -1, 3, MBConvBlock, [ 320, 3, 1 ] ], # 7
  ]

# YOLOv5 head
head:
  [ [ -1, 1, Conv, [ 128, 1, 1 ] ],
    [ -1, 1, nn.Upsample, [ None, 2, 'nearest' ] ],
    [ [ -1, 4 ], 1, Concat, [ 1 ] ],  # cat backbone P4
    [ -1, 1, C3, [ 128, False ] ],  # 11

    [ -1, 1, Conv, [ 128, 1, 1 ] ],
    [ -1, 1, nn.Upsample, [ None, 2, 'nearest' ] ],
    [ [ -1, 2 ], 1, Concat, [ 1 ] ],  # cat backbone P3
    [ -1, 1, C3, [ 128, False ] ],  # 15 (P3/8-small)

    [ -1, 1, Conv, [ 128, 3, 2 ] ],
    [ [ -1, 11 ], 1, Concat, [ 1 ] ],  # cat head P4
    [ -1, 1, C3, [ 128, False ] ],  # 18 (P4/16-medium)

    [ [ 15, 18 ], 1, Detect, [ nc, anchors ] ],  # Detect(P3, P4, P5)
  ]